models/asl_landmark_model.tflite (tflite, 26096 bytes, 8 tensors)

sequential/output/MatMul f4 [28, 32]
000000 8a b2 2b bf b5 3a 08 3e 79 08 fc be 9a ba 06 3e
       -0.67069304 0.13303645 -0.49225214 0.1315712
000010 17 a6 21 bf d9 60 68 3e 2d df 15 be 87 f4 d2 3c
       -0.6314406 0.22693194 -0.14635916 0.025751365
000020 0a 53 2b bf 98 6f 35 3e 7c d9 bb 3e 25 17 0d be
       -0.6692358 0.17718351 0.36689365 -0.1377836
000030 1b ef d1 3d b2 49 cd 3e 33 dd 2d bf 80 b5 03 bf
       0.10250684 0.40095288 -0.6791565 -0.5144882
000040 8f 5a 91 3d 96 af 31 bf 8a 49 37 3e fb c9 3e bf
       0.07097351 -0.6940855 0.17899147 -0.7452695
000050 63 58 01 3e a7 ef b3 be 7b c8 a6 3e 27 57 dc bd
       0.12631373 -0.35143778 0.3257483 -0.107588105
000060 0d 52 a5 be 8f 1d 9f 3e 4f ec ea be d6 73 0b 3e
       -0.32289162 0.3107724 -0.45883414 0.13618407
000070 8e e7 f8 be eb 07 21 bf c2 12 65 3e c5 b8 dd bd
       -0.48614162 -0.62902707 0.22370437 -0.108262576
000080 c6 59 72 3e 04 9d cb be 99 80 5e 3d 2a f5 06 bf
       0.23667058 -0.3976823 0.05432186 -0.5271784
000090 51 41 96 3e b7 c7 55 3e c6 b4 83 3e c4 b2 f2 be
       0.29346707 0.20876966 0.25723857 -0.47402012
0000a0 3e ad e3 be e9 80 10 bf 90 fe cd be 7b 34 fe be
       -0.4446811 -0.564467 -0.40233278 -0.49649414
0000b0 dd e3 86 3e ff aa 00 bf 13 8b 1b bf 9b 0f 07 3e
       0.2634572 -0.5026092 -0.60759085 0.13189547
0000c0 e2 a8 e8 be d5 93 73 3e f5 ec f9 3d a0 71 89 3e
       -0.45441347 0.23786862 0.12203399 0.26844501
0000d0 d9 e6 3c bf 4d 4f 7f be df 38 55 bf da 7a 88 3e
       -0.73789746 -0.24932595 -0.83289903 0.26656228
0000e0 55 01 ed be 4d ce 57 bf 8e 85 d3 bd b5 6a 3a 3e
       -0.4629008 -0.84299165 -0.10328208 0.18204768
0000f0 30 10 28 3e d6 6a dd bd 92 64 0e bf de 12 1b 3e
       0.16412425 -0.10811393 -0.5562221 0.15143916
000100 95 6b 9c 3e e4 a2 fa be 89 34 f4 be 14 d2 19 bf
       0.3055083 -0.489524 -0.4769633 -0.6008618
000110 89 ef 6c 3e ce d4 0a be 5c e5 5d 3d 3b 46 6e 3e
       0.2313825 -0.13557741 0.054173812 0.23268978
000120 15 d9 a0 be bc bd 34 be a2 71 bc 3e cb 0f 08 bf
       -0.3141562 -0.17650503 0.36805445 -0.531491
000130 e9 f6 85 be d5 0b ce bd 99 d4 27 bf d5 42 cb be
       -0.2616494 -0.100608505 -0.65558773 -0.39699426
000140 1b 47 c6 3e 7a b4 e7 be bf ca 9e 3e d1 e3 14 bf
       0.38726124 -0.4525488 0.31014058 -0.5816012
000150 ab 66 8c be 5a 7d 67 be 1a 86 6f be 4a 6b 80 3e
       -0.2742208 -0.22606412 -0.23391 0.25081855
000160 a6 b1 e0 be 24 31 ff be cc bb 8a 3e 6d 3c 89 be
       -0.43885535 -0.4984218 0.27096403 -0.26803914
000170 63 63 7a 3e aa 2b 50 3e ad 47 ee be 54 54 ba be
       0.24451976 0.20329157 -0.4653906 -0.36392462
000180 57 39 b3 3e a7 a6 2c bf dd e5 f9 be aa 4c b0 bd
       0.35004684 -0.6744179 -0.48808184 -0.086083725
000190 f7 21 98 3e e7 b6 3f bd 32 4e 12 3d 71 45 75 bd
       0.29713413 -0.04680529 0.035719104 -0.059880678
0001a0 15 a1 11 bf 8d d0 a3 3e 38 f4 b3 3d 98 2d 39 bf
       -0.56886417 0.3199505 0.087868154 -0.72335196
0001b0 c1 80 d1 be 7a eb 44 bc 74 e6 2d bf a4 77 08 be
       -0.40918544 -0.012019033 -0.6792977 -0.1332689
0001c0 5a ce 54 3e 75 9c c7 bd 59 0a 8f 3e c4 6d 0e be
       0.20781842 -0.09746639 0.27937582 -0.1390906
0001d0 fb 1e 22 3e 77 32 63 3e e1 71 d0 bd eb 43 e2 be
       0.1583213 0.2218722 -0.10177971 -0.44192442
0001e0 a1 0a 65 bf 0c e9 bf be fd 97 65 bd 49 b9 8b 3e
       -0.89469343 -0.37482488 -0.05605315 0.272898
0001f0 fd d3 31 bd cb 50 4e 3e 5a 81 97 bd 35 5d 9e be
       -0.04341506 0.20148008 -0.07397719 -0.30930486
000200 6c 9e e4 bd 36 33 c6 be 18 e9 a5 3e a5 fb d5 be
       -0.11163029 -0.38710946 0.324044 -0.41793552
000210 f4 06 3b be 4f 82 ba 3e 39 b8 b6 3d 78 72 1a 3e
       -0.18264371 0.36427543 0.089218564 0.15082729
000220 49 3c b0 3e c2 95 0f 3e c6 0d 0a bd cf 1a 0f be
       0.34420994 0.14021972 -0.03370454 -0.1397507
000230 cc d9 84 3e b5 99 04 be e5 06 c2 be 41 84 1c 3e
       0.25947416 -0.1294926 -0.37895885 0.15284826
000240 6c 83 d1 bd dd b0 22 be a7 ff 39 be e4 4f 8d bb
       -0.10230145 -0.1588778 -0.1816393 -0.004312502
000250 8c 54 dd be 10 88 33 bf 6c 2e 4e 3e 57 be 6f be
       -0.43228567 -0.7012949 0.20134896 -0.23412453
000260 90 85 07 bf b0 5f df be 68 51 98 3e 42 27 b6 bd
       -0.52938175 -0.4362769 0.29749608 -0.088942066
000270 32 50 8f 3e 16 1a 1a bf 88 b2 ac bd b1 c8 cf be
       0.27990872 -0.60196054 -0.0843249 -0.40582803
000280 52 64 2a be b3 fe 64 3e 9f a0 1e bf 9c 38 5d be
       -0.16639832 0.22362785 -0.6196384 -0.21603626
000290 b0 db af be 51 6d 0a bf 97 47 50 3e ca 05 b9 3d
       -0.34347296 -0.54073054 0.2033981 0.09034307
0002a0 d7 11 e9 be 83 fd 47 bd 38 00 91 3e 37 53 60 be
       -0.45521423 -0.048825752 0.2832048 -0.21906744
0002b0 eb 2c 86 3e a5 06 ce be 0a af b5 be 55 12 eb bc
       0.26206145 -0.40239444 -0.35485107 -0.028695265
0002c0 93 ee a8 3e b4 23 78 be e5 c8 9b be f1 8c 9b 3d
       0.32994518 -0.2423237 -0.30426708 0.07595242
0002d0 94 55 01 bf 5a 60 11 be 4b 2a ff be ab a0 3a 3e
       -0.50521207 -0.14196911 -0.49836954 0.18225352
0002e0 8c d7 83 3e 86 64 16 3d 55 4b b0 bd dc 48 86 3e
       0.25750387 0.03671696 -0.086081184 0.26227462
0002f0 a7 b2 60 3e a7 10 c5 be 9b bd 84 be 27 82 70 3e
       0.2194315 -0.38489267 -0.25925907 0.23487149
000300 14 bd 37 3e a4 55 48 3e 13 d4 45 be 69 77 91 3e
       0.17943221 0.1956392 -0.19319181 0.28411415
000310 de 6e 8c be 1d 04 13 bf a0 4f 0c bf cf 10 0a bf
       -0.27428335 -0.5742815 -0.54809 -0.539319
000320 85 75 a9 be 6a 71 8a be a7 33 b5 be 60 2a 22 bf
       -0.33097473 -0.27039653 -0.3539097 -0.6334591
000330 d6 3f 5a bd 9f f1 77 3e 6d a6 79 3e b6 74 33 bf
       -0.053283535 0.24213265 0.24379893 -0.7009996
000340 55 38 d9 bd 76 fb 8d be 77 2e 1e bf 21 c3 67 be
       -0.106064476 -0.27730912 -0.6178965 -0.2263303
000350 b8 ef e2 bd 28 a3 8b 3e 94 40 e5 3e f7 4f 10 bf
       -0.11080879 0.27272916 0.44775832 -0.56372017
000360 3a d9 c8 3d d8 17 b3 3e 44 10 1a bf 03 c1 a8 3e
       0.09807058 0.3497913 -0.6018107 0.32959756
000370 c1 c9 fe be fc 30 b9 be b3 28 aa be 90 e0 de be
       -0.497633 -0.36170185 -0.33234176 -0.43530703
000380 0b e6 61 3c 17 38 8e be 86 a2 a9 3e 12 a5 90 3e
       0.013787757 -0.27777168 0.33131808 0.2825094
000390 9b bc da be 2e c4 f4 be 2f ea 65 be c3 08 05 bf
       -0.4272202 -0.47805923 -0.22452615 -0.51966494
0003a0 94 b8 92 be 04 ce 89 3e 5d 6f d4 be e3 9d 00 bf
       -0.28656447 0.2691499 -0.41491213 -0.50240916
0003b0 73 87 e7 be 60 82 96 be cd ee 8e 3e 70 b2 6a be
       -0.45220527 -0.29396343 0.27916566 -0.22919631
0003c0 8c 0e 1a bf 8a fe 41 be 50 5c aa be 3e ac f9 3d
       -0.60178447 -0.18944755 -0.33273554 0.12191056
0003d0 b7 7b 9f be 60 91 cf 3d dc 21 bf 3e 2c 0a 81 3e
       -0.31149074 0.1013515 0.3733052 0.25203073
0003e0 b7 4e 08 3e 6b 30 ab be 80 aa a5 be e1 a4 6d 3e
       0.13311277 -0.33435377 -0.32356644 0.23207428
0003f0 65 e3 f9 be e8 11 20 3e 52 a9 bc be b0 55 43 3e
       -0.488063 0.1563183 -0.3684793 0.19075656

sequential/dense1/BiasAdd/ReadVariableOp f4 [128]
000000 ed 7d b2 bd 87 3f 13 be 9e 56 bb bd 85 54 f7 bd
       -0.08715425 -0.14379703 -0.0914738 -0.12076668
000010 f1 76 24 be f5 4e fb bd d2 ba 2f be 56 c9 a7 3c
       -0.16060998 -0.12270919 -0.1716111 0.020481747
000020 56 09 98 39 19 99 65 bd d4 ae 96 bc 3e 4f e1 3b
       0.00028998655 -0.05605421 -0.018393911 0.0068759015
000030 73 d5 29 be a6 89 2d bd 08 fe 1b be bf cc 02 be
       -0.1658533 -0.0423676 -0.15233624 -0.12773417
000040 38 d9 e7 bd 00 1d a8 bd e7 15 33 be 21 40 21 be
       -0.11320728 -0.08208656 -0.17488824 -0.1574712
000050 95 53 e9 bd ba 7c 4a bd ff 64 52 bd ce b3 02 be
       -0.11392895 -0.049435355 -0.05136585 -0.12763903
000060 fb 1a 94 bb c4 00 27 be 72 98 6e bd 3f 51 ee bd
       -0.004519818 -0.16308886 -0.058250852 -0.1163659
000070 bc 56 f8 bd c8 ab 33 be 4a 55 3c 3d df 53 38 3d
       -0.12125918 -0.17545998 0.045979775 0.04500186
000080 d1 3a 20 3e 37 cc 28 be e0 2e a1 bd 1a 5d af bd
       0.15647437 -0.16484152 -0.07870269 -0.085626796
000090 36 bf bf bd 08 0a 8e bd e3 b5 67 bd 85 bd 51 3e
       -0.093626425 -0.06935507 -0.056569945 0.20482452
0000a0 95 50 23 be c8 f7 5f bd eb 4e 0d be f7 d3 89 be
       -0.15948708 -0.054679662 -0.13799636 -0.2691953
0000b0 62 97 d5 bd 53 17 38 bd 76 67 4f be b0 c9 33 bd
       -0.104292646 -0.04494412 -0.20254311 -0.043893516
0000c0 59 ee 47 be 8f 08 04 bd 06 25 9e be da c1 6c bd
       -0.19524516 -0.032234725 -0.30887622 -0.05780206
0000d0 a5 e3 64 bd 04 4e 34 bd c7 37 81 3c d4 56 b6 bd
       -0.05588116 -0.044019714 0.015773667 -0.0890328
0000e0 fc 84 c9 bd a7 34 2d bd 5f 0d f3 bc 47 dc a5 bd
       -0.09839818 -0.04228654 -0.029669462 -0.08098655
0000f0 05 41 57 bd ff 17 0d be d4 99 8f bd c4 48 9c bd
       -0.05255224 -0.13778685 -0.07011762 -0.076310664
000100 df 6f 83 bd f9 17 68 3d 2b b2 28 be c2 8a b6 bd
       -0.06417822 0.056663487 -0.16474216 -0.08913185
000110 cd 1a 93 3b f2 57 a1 3d c7 c9 a0 bd 09 b5 0b bd
       0.004489279 0.07878102 -0.07850986 -0.034108195
000120 63 6f 26 be c6 5b b6 bd fa 40 db bc cf f0 b5 bd
       -0.16253428 -0.08904223 -0.026764382 -0.08883821
000130 65 a5 13 3d 01 01 0c be 14 b4 5f 3d fb 5c 19 be
       0.036046404 -0.13672258 0.054615095 -0.14976875
000140 33 d9 b5 bd 34 ee 74 bd 14 35 af bd da d8 5d 3c
       -0.08879318 -0.05979748 -0.08555046 0.013540471
000150 bc 2b 4b bd 37 1f d2 bd 59 ce 3d be e5 19 36 be
       -0.049602255 -0.1025986 -0.18535747 -0.17783315
000160 d4 70 38 bd 5b 86 c6 bd 41 00 96 bd 89 3a a5 bd
       -0.045029476 -0.09693595 -0.07324267 -0.08067805
000170 64 91 bb bd 83 e1 86 bd 9a 87 fb bd bb e3 67 be
       -0.091585904 -0.06585982 -0.12281723 -0.22645466
000180 97 c9 09 be cc 15 2b bd 5c 46 22 3d 5f 2e d4 bc
       -0.13455807 -0.041768834 0.03961788 -0.025901018
000190 01 19 bd bd dd d4 4a 3c ec fe 03 bc ea 48 d7 3c
       -0.09233285 0.012379852 -0.008056384 0.026279885
0001a0 67 8b 1b bd 31 c1 1e be b7 b6 bb bd 4a b7 cd bd
       -0.03797474 -0.15503384 -0.091657095 -0.10044725
0001b0 29 52 5d bc a2 1f 66 bc c8 61 26 3c f1 28 86 ba
       -0.013508358 -0.014045628 0.010155149 -0.001023559
0001c0 86 14 11 be 68 e7 96 3d 97 af d6 bd 4f ce 1d be
       -0.14167985 0.07368356 -0.1048271 -0.15410732
0001d0 28 3a 6a bd 31 a6 5c bd 50 26 0c be f8 55 b9 bd
       -0.05718437 -0.05386943 -0.1368649 -0.090496
0001e0 11 69 1f be f8 f7 15 bd 0f e1 e7 bd 4c f5 b8 bd
       -0.15567423 -0.036613435 -0.113222234 -0.09031162
0001f0 90 96 0c be 5d d6 bc bd 30 23 19 be b5 8d cd bd
       -0.1372931 -0.09220574 -0.14954829 -0.10036794

sequential/output/BiasAdd/ReadVariableOp f4 [28]
000000 43 c7 a2 bb 55 93 99 bd 60 cc d5 bd ed 4c 1d 3e
       -0.0049676015 -0.074988045 -0.10439372 0.15361376
000010 ed 55 2e 3c 88 8e 80 bd 43 4d 71 3e 79 58 d0 bd
       0.0106406035 -0.06277186 0.2356463 -0.10173125
000020 74 28 96 3e ff 49 06 bd 1b 49 23 3e c8 6e 3c 3c
       0.29327738 -0.032785412 0.15945856 0.011501022
000030 4d 4d 63 3d 52 df 14 be 00 b9 22 be 24 aa 08 3d
       0.05549364 -0.14538315 -0.15890884 0.033365384
000040 18 9d 3e be 37 cd 01 3d ec 6d a9 3d f5 36 5e be
       -0.18614614 0.03168985 0.08272919 -0.21700652
000050 af 30 33 3e 0e fd a9 bd a8 0c fe bd 59 57 ef 3d
       0.1749904 -0.083002195 -0.12404758 0.11686582
000060 bf 96 ce bc 55 e0 a9 bd 4c 5b 5c bd 2a 2f cc 38
       -0.025218366 -0.08294741 -0.053798005 9.736263e-05

sequential/dense3/MatMul;sequential/dense3/Relu;sequential/dense3/BiasAdd f4 [32]
000000 5e 04 ea 3f ae dd e9 3e 8f 2f a6 3e 18 cd 4a 40
       1.8282583 0.4567694 0.3245816 3.168768
000010 08 96 dd 3f d6 b7 5b be 30 f8 39 3f 06 56 9b 3f
       1.7311411 -0.21456847 0.7264433 1.2135627
000020 37 6f e3 bf 5f f2 6f 40 b9 1d 96 be bc a7 fc 3f
       -1.7768315 3.7491682 -0.29319552 1.9738688
000030 c8 94 3f bf c7 fa ee 3e fd 45 ca bf db 42 c3 3f
       -0.748364 0.46675703 -1.5802609 1.5254778
000040 79 30 42 3f 7c 47 e6 be d7 34 b8 bf 2e 44 f0 3f
       0.75855213 -0.44976413 -1.4391125 1.8770807
000050 fc b4 9c 3f 22 bb ce 3e 12 d6 49 3f a0 f1 58 3e
       1.2242732 0.40377146 0.7884227 0.21185923
000060 60 ea 25 3f a2 16 e7 bd 0b ea 63 40 8b 16 ea be
       0.6481075 -0.11283614 3.5611598 -0.45720324
000070 26 bb 78 3f 4a 1c 55 40 c8 b1 16 40 ae 83 56 3f
       0.97160566 3.3298516 2.354601 0.8379468

sequential/dense2/MatMul;sequential/dense2/Relu;sequential/dense2/BiasAdd f4 [64]
000000 b8 0a 01 c0 9e f3 40 c0 02 54 21 bf c2 9b 95 c0
       -2.0162792 -3.0148692 -0.6301881 -4.6752634
000010 b1 a8 9c 3e d8 79 5f 3e a3 fc e6 3f e9 ff 89 3f
       0.3059745 0.21823823 1.8045849 1.0781223
000020 87 a8 77 bf 25 4a 29 40 7e eb 71 3e 49 66 a4 3f
       -0.9674153 2.6451504 0.2362499 1.2843715
000030 90 3f 18 40 a7 fe 07 bf 1a 29 36 bd 16 b5 13 40
       2.3788795 -0.53122944 -0.04447279 2.3079276
000040 ac 53 c4 3e 35 30 8a be f2 92 05 40 e8 6a 8c bd
       0.38345087 -0.26989904 2.0870938 -0.06856328
000050 e7 3d 9b 3e 70 44 cf be 39 5b 4a 40 58 88 47 40
       0.30320665 -0.404819 3.1618178 3.1176968
000060 b1 aa cf be c0 8d ab 3f 0b b7 0c c0 2e 3a 00 40
       -0.40559915 1.3402634 -2.198672 2.003551
000070 63 5e ee bf e5 8d 60 3f c7 1b d1 3e 58 b3 74 3f
       -1.8622555 0.87716514 0.40841505 0.95586157
000080 38 0f f5 3f 86 44 8e 3e 7e ad 17 40 f4 4c 6d 40
       1.9145269 0.27786654 2.3699641 3.7078218
000090 71 4f ba 3f 55 6f 07 c0 59 9f cc 3f 07 30 8c be
       1.4555494 -2.1161702 1.5986129 -0.27380392
0000a0 d3 f7 03 40 08 c2 df 3f 81 3e dd 3e 50 e1 c6 3f
       2.062001 1.7481089 0.4321175 1.553751
0000b0 57 ad 87 bf 5e b8 1e 40 bc 99 fc be 84 c5 09 3d
       -1.0599774 2.4800029 -0.4933604 0.03363563
0000c0 4b 4b 21 3f 2f df 39 40 89 e1 bf 3f 6a 46 8d 3f
       0.6300551 2.904247 1.4990703 1.1037114
0000d0 8a d4 07 40 88 ff c1 bf fb af 86 be d4 23 98 bf
       2.1223474 -1.5156107 -0.26306137 -1.1885934
0000e0 59 3f bd bc 77 d6 bd be 48 60 d0 bf 70 a5 d2 3f
       -0.023101496 -0.37077686 -1.6279383 1.6456738
0000f0 02 5b d5 3f 38 f4 da 3f f3 35 83 c0 1f b4 16 40
       1.6668398 1.710578 -4.1003356 2.3547437

sequential/batch_normalization/batchnorm/mul_1;sequential/batch_normalization/batchnorm/add_1;sequential/dense2/MatMul;sequential/dense2/Relu;sequential/dense2/BiasAdd i1 [64, 128] scale=0.122378446 zero_point=0
000000 0c f1 0c 05 fe 02 fd 05 13 04 f2 f9 12 fd 07 eb
       1.4685414 -1.8356767 1.4685414 0.6118922 -0.24475689 0.24475689 -0.36713535 0.6118922 2.3251905 0.48951378 -1.7132982 -0.8566491 2.202812 -0.36713535 0.8566491 -2.5699475
000010 ed 00 02 0a c8 02 fd ff fd ef fd ef 0a 14 05 03
       -2.3251905 0.0 0.24475689 1.2237844 -6.853193 0.24475689 -0.36713535 -0.122378446 -0.36713535 -2.0804336 -0.36713535 -2.0804336 1.2237844 2.447569 0.6118922 0.36713535
000020 fd 1b f8 fc dc 0a 01 ff 09 05 08 05 f8 11 05 0a
       -0.36713535 3.304218 -0.97902757 -0.48951378 -4.405624 1.2237844 0.122378446 -0.122378446 1.101406 0.6118922 0.97902757 0.6118922 -0.97902757 2.0804336 0.6118922 1.2237844
000030 12 f5 fe fe f7 08 06 07 11 e0 05 f1 ec e0 0b fd
       2.202812 -1.3461629 -0.24475689 -0.24475689 -1.101406 0.97902757 0.7342707 0.8566491 2.0804336 -3.9161103 0.6118922 -1.8356767 -2.447569 -3.9161103 1.3461629 -0.36713535
000040 07 08 35 f3 09 eb ff 02 f6 22 05 06 fb 07 05 f6
       0.8566491 0.97902757 6.4860578 -1.5909199 1.101406 -2.5699475 -0.122378446 0.24475689 -1.2237844 4.160867 0.6118922 0.7342707 -0.6118922 0.8566491 0.6118922 -1.2237844
000050 00 f7 e4 f4 f3 ff 11 05 f6 33 0b fb 05 f4 05 07
       0.0 -1.101406 -3.4265964 -1.4685414 -1.5909199 -0.122378446 2.0804336 0.6118922 -1.2237844 6.2413006 1.3461629 -0.6118922 0.6118922 -1.4685414 0.6118922 0.8566491
000060 04 f5 03 ff ff f5 08 e1 04 25 06 08 03 0a 11 41
       0.48951378 -1.3461629 0.36713535 -0.122378446 -0.122378446 -1.3461629 0.97902757 -3.793732 0.48951378 4.5280027 0.7342707 0.97902757 0.36713535 1.2237844 2.0804336 7.954599
000070 03 02 38 04 fd f7 e6 01 05 07 08 09 10 d1 fe f8
       0.36713535 0.24475689 6.853193 0.48951378 -0.36713535 -1.101406 -3.1818397 0.122378446 0.6118922 0.8566491 0.97902757 1.101406 1.9580551 -5.751787 -0.24475689 -0.97902757
000080 0a e3 fb 04 02 02 05 fc fd 02 fa 03 04 04 00 02
       1.2237844 -3.548975 -0.6118922 0.48951378 0.24475689 0.24475689 0.6118922 -0.48951378 -0.36713535 0.24475689 -0.7342707 0.36713535 0.48951378 0.48951378 0.0 0.24475689
000090 ff 00 0a fc 16 00 11 17 fe 2a 0f fb ff 37 f5 04
       -0.122378446 0.0 1.2237844 -0.48951378 2.6923258 0.0 2.0804336 2.8147042 -0.24475689 5.139895 1.8356767 -0.6118922 -0.122378446 6.7308145 -1.3461629 0.48951378
0000a0 f1 15 01 04 f2 00 07 f1 ff 06 09 0d 06 d2 02 03
       -1.8356767 2.5699475 0.122378446 0.48951378 -1.7132982 0.0 0.8566491 -1.8356767 -0.122378446 0.7342707 1.101406 1.5909199 0.7342707 -5.6294084 0.24475689 0.36713535
0000b0 18 17 10 05 f5 01 fa 01 df 25 0c 08 e3 0b de 0c
       2.9370828 2.8147042 1.9580551 0.6118922 -1.3461629 0.122378446 -0.7342707 0.122378446 -4.038489 4.5280027 1.4685414 0.97902757 -3.548975 1.3461629 -4.160867 1.4685414
0000c0 f8 02 05 01 fb 06 05 d4 f4 01 fb 01 fc ff 0b 05
       -0.97902757 0.24475689 0.6118922 0.122378446 -0.6118922 0.7342707 0.6118922 -5.3846517 -1.4685414 0.122378446 -0.6118922 0.122378446 -0.48951378 -0.122378446 1.3461629 0.6118922
0000d0 02 10 00 02 fa 0e 14 05 0f 1b f7 01 fd f5 04 0f
       0.24475689 1.9580551 0.0 0.24475689 -0.7342707 1.7132982 2.447569 0.6118922 1.8356767 3.304218 -1.101406 0.122378446 -0.36713535 -1.3461629 0.48951378 1.8356767
0000e0 fe fd 05 01 f9 0b fc f3 fd ff fa 0c fb 04 e5 eb
       -0.24475689 -0.36713535 0.6118922 0.122378446 -0.8566491 1.3461629 -0.48951378 -1.5909199 -0.36713535 -0.122378446 -0.7342707 1.4685414 -0.6118922 0.48951378 -3.304218 -2.5699475
0000f0 fd 09 fe fe 08 fe fb 0b 03 01 fd 00 09 16 f0 f8
       -0.36713535 1.101406 -0.24475689 -0.24475689 0.97902757 -0.24475689 -0.6118922 1.3461629 0.36713535 0.122378446 -0.36713535 0.0 1.101406 2.6923258 -1.9580551 -0.97902757

sequential/batch_normalization_1/batchnorm/mul_1;sequential/batch_normalization_1/batchnorm/add_1;sequential/dense3/MatMul;sequential/dense3/Relu;sequential/dense3/BiasAdd i1 [32, 64] scale=0.0076648206 zero_point=0
000000 f5 34 e2 f1 e7 c3 38 0e fd 32 fc 07 e8 ed 1f 15
       -0.08431303 0.3985707 -0.22994462 -0.11497231 -0.19162051 -0.46755406 0.42922994 0.107307486 -0.022994462 0.38324103 -0.030659283 0.053653743 -0.1839557 -0.1456316 0.23760945 0.16096124
000010 e4 11 0f e9 f2 e0 e1 d8 f2 e5 e5 f2 f1 ea e8 df
       -0.21461497 0.13030195 0.11497231 -0.17629087 -0.107307486 -0.24527426 -0.23760945 -0.30659282 -0.107307486 -0.20695016 -0.20695016 -0.107307486 -0.11497231 -0.16862606 -0.1839557 -0.25293908
000020 2a 33 df d6 08 c3 0e f4 05 e1 0c 1a f9 fc 15 36
       0.32192248 0.39090586 -0.25293908 -0.32192248 0.061318565 -0.46755406 0.107307486 -0.09197785 0.038324103 -0.23760945 0.09197785 0.19928534 -0.053653743 -0.030659283 0.16096124 0.41390032
000030 e4 19 ef ef 08 0f fc f6 24 16 ed d7 01 e6 3d d7
       -0.21461497 0.19162051 -0.13030195 -0.13030195 0.061318565 0.11497231 -0.030659283 -0.076648206 0.27593353 0.16862606 -0.1456316 -0.31425765 0.0076648206 -0.19928534 0.46755406 -0.31425765
000040 f2 ed e1 1e 02 0c ea 08 fb 16 ee 0a f2 09 02 13
       -0.107307486 -0.1456316 -0.23760945 0.22994462 0.015329641 0.09197785 -0.16862606 0.061318565 -0.038324103 0.16862606 -0.13796677 0.076648206 -0.107307486 0.06898338 0.015329641 0.1456316
000050 03 08 0f fe bf 30 ff 3e de dc 03 03 00 2d df 11
       0.022994462 0.061318565 0.11497231 -0.015329641 -0.49821335 0.3679114 -0.0076648206 0.4752189 -0.2606039 -0.27593353 0.022994462 0.022994462 0.0 0.34491694 -0.25293908 0.13030195
000060 19 09 f4 0c fd eb f0 cf 1f 09 05 c6 f8 33 0f 0e
       0.19162051 0.06898338 -0.09197785 0.09197785 -0.022994462 -0.16096124 -0.12263713 -0.3755762 0.23760945 0.06898338 0.038324103 -0.4445596 -0.061318565 0.39090586 0.11497231 0.107307486
000070 ed e2 0e ee c0 21 0c 05 fc f9 e0 2c 19 0f e3 18
       -0.1456316 -0.22994462 0.107307486 -0.13796677 -0.49054852 0.25293908 0.09197785 0.038324103 -0.030659283 -0.053653743 -0.24527426 0.3372521 0.19162051 0.11497231 -0.2222798 0.1839557
000080 e9 06 09 16 f4 ec fe e4 e7 21 12 0f dd 1a 10 2b
       -0.17629087 0.045988925 0.06898338 0.16862606 -0.09197785 -0.15329641 -0.015329641 -0.21461497 -0.19162051 0.25293908 0.13796677 0.11497231 -0.26826873 0.19928534 0.12263713 0.32958728
000090 16 d8 0f e4 23 19 e7 b6 20 fa 02 24 53 e3 07 e7
       0.16862606 -0.30659282 0.11497231 -0.21461497 0.26826873 0.19162051 -0.19162051 -0.5671967 0.24527426 -0.045988925 0.015329641 0.27593353 0.6361801 -0.2222798 0.053653743 -0.19162051
0000a0 e9 ee eb ef de ec fa 18 d6 1b 15 2b 0e d3 01 ed
       -0.17629087 -0.13796677 -0.16096124 -0.13030195 -0.2606039 -0.15329641 -0.045988925 0.1839557 -0.32192248 0.20695016 0.16096124 0.32958728 0.107307486 -0.34491694 0.0076648206 -0.1456316
0000b0 fe e7 0a ff 07 37 e2 eb 0b f4 29 12 e1 14 29 f5
       -0.015329641 -0.19162051 0.076648206 -0.0076648206 0.053653743 0.42156515 -0.22994462 -0.16096124 0.08431303 -0.09197785 0.31425765 0.13796677 -0.23760945 0.15329641 0.31425765 -0.08431303
0000c0 fe 07 d1 22 c5 b0 ca 21 e7 26 f9 fb 0d 5a e3 10
       -0.015329641 0.053653743 -0.36024657 0.2606039 -0.4522244 -0.61318564 -0.41390032 0.25293908 -0.19162051 0.2912632 -0.053653743 -0.038324103 0.09964267 0.6898339 -0.2222798 0.12263713
0000d0 c2 e7 1a f8 09 e9 ee f5 f8 08 f7 ef e6 24 11 f8
       -0.4752189 -0.19162051 0.19928534 -0.061318565 0.06898338 -0.17629087 -0.13796677 -0.08431303 -0.061318565 0.061318565 -0.06898338 -0.13030195 -0.19928534 0.27593353 0.13030195 -0.061318565
0000e0 ca 02 1b d1 f9 01 11 f4 d2 fe e3 ea 0b 0a 13 ea
       -0.41390032 0.015329641 0.20695016 -0.36024657 -0.053653743 0.0076648206 0.13030195 -0.09197785 -0.35258174 -0.015329641 -0.2222798 -0.16862606 0.08431303 0.076648206 0.1456316 -0.16862606
0000f0 fb ee e5 15 e5 f5 12 f8 18 13 d0 09 17 08 ed d2
       -0.038324103 -0.13796677 -0.20695016 0.16096124 -0.20695016 -0.08431303 0.13796677 -0.061318565 0.1839557 0.1456316 -0.3679114 0.06898338 0.17629087 0.061318565 -0.1456316 -0.35258174

sequential/dense1/MatMul i1 [128, 63] scale=0.0041739345 zero_point=0
000000 27 08 f0 26 30 0d 1e ed 20 29 c0 e4 c6 c1 0f fa
       0.16278344 0.033391476 -0.06678295 0.15860951 0.20034885 0.054261148 0.12521803 -0.079304755 0.1335659 0.17113131 -0.2671318 -0.116870165 -0.2420882 -0.26295787 0.06260902 -0.025043607
000010 25 1d e9 00 21 f4 09 ee be 0a de f8 f8 fd f3 19
       0.15443558 0.1210441 -0.09600049 0.0 0.13773984 -0.050087214 0.03756541 -0.07513082 -0.27547967 0.041739345 -0.14191377 -0.033391476 -0.033391476 -0.012521803 -0.054261148 0.10434836
000020 23 20 cb f9 32 f3 f8 02 eb 03 27 f4 ea 0e ec e2
       0.1460877 0.1335659 -0.22121853 -0.029217541 0.20869672 -0.054261148 -0.033391476 0.008347869 -0.08765262 0.012521803 0.16278344 -0.050087214 -0.09182656 0.058435082 -0.08347869 -0.12521803
000030 35 19 30 eb 01 0c e1 0f 28 0a 00 f5 3f 29 33 27
       0.22121853 0.10434836 0.20034885 -0.08765262 0.0041739345 0.050087214 -0.12939197 0.06260902 0.16695738 0.041739345 0.0 -0.04591328 0.26295787 0.17113131 0.21287066 0.16278344
000040 0b e5 0f f8 1d 17 dd 07 f4 de 15 13 df f5 d9 26
       0.04591328 -0.11269623 0.06260902 -0.033391476 0.1210441 0.09600049 -0.1460877 0.029217541 -0.050087214 -0.14191377 0.08765262 0.079304755 -0.13773984 -0.04591328 -0.16278344 0.15860951
000050 ea 14 0b df ed 27 04 04 11 2d 09 f0 28 eb ef 18
       -0.09182656 0.08347869 0.04591328 -0.13773984 -0.079304755 0.16278344 0.016695738 0.016695738 0.070956886 0.18782705 0.03756541 -0.06678295 0.16695738 -0.08765262 -0.070956886 0.10017443
000060 fb 2d 13 1a 21 ee ef 35 15 25 1d ff 10 17 10 e7
       -0.020869672 0.18782705 0.079304755 0.108522296 0.13773984 -0.07513082 -0.070956886 0.22121853 0.08765262 0.15443558 0.1210441 -0.0041739345 0.06678295 0.09600049 0.06678295 -0.10434836
000070 37 28 2d f5 fe 18 29 3f ff fe f1 ec fd f2 16 e1
       0.2295664 0.16695738 0.18782705 -0.04591328 -0.008347869 0.10017443 0.17113131 0.26295787 -0.0041739345 -0.008347869 -0.06260902 -0.08347869 -0.012521803 -0.058435082 0.09182656 -0.12939197
000080 24 e8 fd 37 03 1d 2f 0e 04 ff fd ee 05 16 f4 2e
       0.15026164 -0.10017443 -0.012521803 0.2295664 0.012521803 0.1210441 0.19617492 0.058435082 0.016695738 -0.0041739345 -0.012521803 -0.07513082 0.020869672 0.09182656 -0.050087214 0.19200099
000090 08 1c f9 57 d6 2c 73 18 fd f7 f1 ea be e0 fc c8
       0.033391476 0.116870165 -0.029217541 0.3631323 -0.17530525 0.18365312 0.48000246 0.10017443 -0.012521803 -0.03756541 -0.06260902 -0.09182656 -0.27547967 -0.1335659 -0.016695738 -0.23374033
0000a0 e1 f2 e6 04 f8 0e 05 1f c4 fd eb f3 12 e5 29 d0
       -0.12939197 -0.058435082 -0.108522296 0.016695738 -0.033391476 0.058435082 0.020869672 0.12939197 -0.25043607 -0.012521803 -0.08765262 -0.054261148 0.07513082 -0.11269623 0.17113131 -0.20034885
0000b0 21 2f 08 f3 d9 0d 0b d9 13 ea ef 37 28 0c de f2
       0.13773984 0.19617492 0.033391476 -0.054261148 -0.16278344 0.054261148 0.04591328 -0.16278344 0.079304755 -0.09182656 -0.070956886 0.2295664 0.16695738 0.050087214 -0.14191377 -0.058435082
0000c0 d3 f6 36 e5 e2 f7 06 e3 0f 1d ee 1c d1 e0 17 f8
       -0.18782705 -0.041739345 0.22539246 -0.11269623 -0.12521803 -0.03756541 0.025043607 -0.1210441 0.06260902 0.1210441 -0.07513082 0.116870165 -0.19617492 -0.1335659 0.09600049 -0.033391476
0000d0 dc 1a 31 21 0f 15 29 0d 1a 0b e2 13 d2 23 f5 f8
       -0.15026164 0.108522296 0.20452279 0.13773984 0.06260902 0.08765262 0.17113131 0.054261148 0.108522296 0.04591328 -0.12521803 0.079304755 -0.19200099 0.1460877 -0.04591328 -0.033391476
0000e0 06 d3 f0 e9 22 17 1d c5 f8 09 0a 0c f2 19 1b 28
       0.025043607 -0.18782705 -0.06678295 -0.09600049 0.14191377 0.09600049 0.1210441 -0.24626213 -0.033391476 0.03756541 0.041739345 0.050087214 -0.058435082 0.10434836 0.11269623 0.16695738
0000f0 2a 27 14 f8 19 de da db 04 fb d3 1e f8 ea 20 f6
       0.17530525 0.16278344 0.08347869 -0.033391476 0.10434836 -0.14191377 -0.15860951 -0.15443558 0.016695738 -0.020869672 -0.18782705 0.12521803 -0.033391476 -0.09182656 0.1335659 -0.041739345
